data/gnn_model_yellow.pth (torch, 422198 bytes, 8 tensors)

node_embeddings.weight f4 [34807, 3]
000000 51 38 8e bf b6 e6 e9 bf 79 f3 f4 be 41 02 f2 3e
       -1.1110936 -1.8273532 -0.47842005 0.47267345
000010 56 ce 6c 3f 3c e6 2c 40 26 ae ab 3f fa f8 0a 3e
       0.92502344 2.7015524 1.3412521 0.1357154
000020 8c da 70 bd ea ee 73 3e ee a8 69 bf ee b4 6e be
       -0.058802173 0.23821607 -0.9127339 -0.23311207
000030 d3 9e 46 3f 87 fc 9c 3f ef 5b 4a 3f 67 1a 1b bf
       0.77586097 1.2264565 0.7904653 -0.6058716
000040 4b 16 a7 3e c9 5b 60 3f fa 26 bf be 25 9c 4d 3f
       0.32634196 0.87640053 -0.37334424 0.8031638
000050 a6 74 08 3d 3a 9a 70 bf 04 77 c3 3f b1 46 d5 bf
       0.03331437 -0.9398533 1.5270696 -1.6662198
000060 91 ca ab 3c 9a c1 66 3f 42 54 0c bf 04 23 31 bf
       0.020970615 0.9013916 -0.5481607 -0.69194055
000070 2e 32 6b be 15 51 4e 3f 44 8a 65 3f dc fe 38 be
       -0.22968361 0.8059247 0.896641 -0.18065971
000080 77 da 11 c0 3d 63 4b be 1f 56 30 3f fd 1d ac be
       -2.278959 -0.19862075 0.6888141 -0.3361663
000090 0f 47 e6 be ab 0c 62 3d 9f b0 22 3f 9f 45 9b bf
       -0.44976088 0.055187862 0.6355075 -1.2130622
0000a0 4b 91 6c bf cd f1 e6 be 17 72 48 3d ed 32 d5 3d
       -0.924092 -0.45106354 0.04893693 0.10410104
0000b0 27 fa b9 3c 93 2c fd 3f 81 e0 35 3f e3 10 75 3e
       0.02270229 1.9779228 0.7104569 0.23932223
0000c0 d7 c7 1f 3f c8 26 1c 40 6f 6a 52 3e 35 95 16 bf
       0.62414306 2.439867 0.20548414 -0.5882142
0000d0 52 0a bc bf fa b6 b2 bf c0 9f 2a bf 00 02 26 bf
       -1.469065 -1.396209 -0.6665001 -0.648468
0000e0 f1 84 8b bf 1b 1a 2f 3f 58 f0 35 bf cd 8a 40 3e
       -1.0899945 0.6839921 -0.7106986 0.18802948
0000f0 e1 5d 3a bf 2a b1 3f bf e6 b8 19 3e eb cd e2 be
       -0.727995 -0.74879706 0.1501194 -0.44297728
000100 3d e8 dc 3f 67 76 53 bf 94 18 d9 3d 1a 9a c7 3e
       1.7258373 -0.8260254 0.10600391 0.38984758
000110 4a de 97 3e 65 1a b7 be 33 67 6a bf 84 bd 02 3f
       0.2966178 -0.35762325 -0.9156372 0.5107043
000120 a8 ed 00 3f d7 30 8e bf 3a 53 16 3f 08 19 09 3f
       0.50362635 -1.1108655 0.58720744 0.5355382
000130 92 1d 3c bf a7 f9 39 3e ad a3 75 be 8d ca 34 3e
       -0.7348262 0.18161641 -0.23988219 0.17655392
000140 e0 9e 57 bf cf 62 1c bf e5 db c7 be 63 1e 87 3f
       -0.842268 -0.6108827 -0.39034954 1.0556148
000150 73 c1 4c bf b2 40 51 bf f0 ea 0d 3f 4d 34 c7 3d
       -0.7998268 -0.8173934 0.5543661 0.097267725
000160 99 24 9b 3e 1a ff 14 3e d2 5e 60 3f 5f ec da 3c
       0.3030136 0.14550439 0.87644684 0.026724039
000170 e1 08 8b 3d 7a 2d 3a bf de c5 e6 3e 4d 23 47 3d
       0.06788803 -0.7272564 0.45072836 0.04861765
000180 34 cb bf ba 13 43 18 40 5e 6a 8e bf 53 a1 72 bf
       -0.0014632703 2.379094 -1.1126211 -0.9477741
000190 91 c0 51 3e e6 fc 8a bf 35 fd 8f bc c5 9e 61 be
       0.20483615 -1.0858428 -0.017576793 -0.22033222
0001a0 22 b9 d4 be b9 b8 50 3e 42 28 8d bf 53 89 bc bd
       -0.41547495 0.20382966 -1.1027911 -0.0920588
0001b0 bb 13 50 3f 29 96 8e 3f 98 46 10 3f 0d f7 91 3f
       0.81280106 1.1139575 0.5635772 1.1403519
0001c0 37 38 b1 3e 8a b7 7c 3f 02 55 1d be 0e 7c e1 be
       0.346132 0.9871756 -0.15364459 -0.4403996
0001d0 2b 00 69 bf cd d6 e9 be 7d 7b 5c bd 1f b6 71 3f
       -0.9101588 -0.45671692 -0.053828705 0.9441852
0001e0 46 4a 27 40 d1 7b 25 3f 02 c5 fc bf 9b ca 8e bd
       2.6139083 0.64642054 -1.9747622 -0.06972238
0001f0 ba e3 c2 3e d8 1d aa be d8 48 ed 3d 79 73 47 bf
       0.38064367 -0.33225894 0.115861595 -0.7791057
000200 69 93 72 bf 52 cb 9e be 22 53 0e be 5e f7 7b 3e
       -0.9475618 -0.31014496 -0.138989 0.24606082
000210 c2 c5 20 3f f3 ff 28 3f f7 ae 9e bf c0 37 e9 bf
       0.62801754 0.6601555 -1.2397145 -1.8220139
000220 b7 c7 8c bf ab c3 46 3f 22 42 e5 3f e8 16 9d be
       -1.0998448 0.77642316 1.7910807 -0.3068154
000230 5a a7 80 bf dd 70 d4 3f 80 a3 12 bf 23 51 e2 3e
       -1.0051072 1.6596943 -0.5728073 0.44202527
000240 67 8c 05 40 c8 f6 a5 3e 73 3d 02 40 a3 b3 3c bf
       2.0866945 0.32414842 2.0350006 -0.73711604
000250 e9 de e8 3f c4 58 04 3f 79 69 35 3f 7f c1 f5 3f
       1.8193027 0.51697946 0.70864064 1.9199675
000260 a8 68 b3 be aa 67 36 3f 03 7c 5e 3f a6 07 1b 3e
       -0.35040784 0.7125193 0.86907977 0.15139636
000270 31 d1 ac 3f 19 9a bf bd 07 45 ee bf 9b d9 a9 3c
       1.350134 -0.09355564 -1.8614815 0.020733645
000280 02 d7 79 3e 9d 03 25 be f8 1d 68 3f 4a 85 2e 3f
       0.24398425 -0.1611466 0.9067073 0.6817213
000290 75 fd 01 3f 63 a8 c5 3c e4 a3 82 3f 59 00 e8 be
       0.5077737 0.024128145 1.0206265 -0.45312765
0002a0 51 56 86 bf c8 6e 8c 3f 76 0d 53 bf f7 1d be bf
       -1.0495092 1.0971308 -0.82442415 -1.4852895
0002b0 41 ac 70 3e 2b 93 ac be 45 33 2d bf a1 2b 10 c0
       0.2350321 -0.3370603 -0.67656356 -2.252663
0002c0 52 00 35 3f 19 65 4e 3f 3e 72 42 bf c0 e8 ae 3f
       0.70703614 0.8062301 -0.7595557 1.366478
0002d0 0c de a8 bd 5c 6c 2f bf e9 d6 09 bf eb 52 a0 3f
       -0.08245477 -0.6852472 -0.5384355 1.2525305
0002e0 48 04 2d 3e 2c e5 e6 bd bb 85 7b 3e 8b de 1f be
       0.16896164 -0.1127418 0.24562733 -0.15612237
0002f0 ad 2c 35 bf ac 93 e7 bf 55 3b 1c bf b3 d3 82 3f
       -0.70771295 -1.8091941 -0.61028033 1.0220855
000300 57 28 9f 3e a7 22 5e 3e 29 00 56 bf 58 4e cb be
       0.31085464 0.21692906 -0.83593994 -0.3970821
000310 cf c4 9d 3e e6 6e 8f 3f 3f bb d0 3f 6a d5 92 3e
       0.30814216 1.1205719 1.6307143 0.28678447
000320 cb 8f 89 bf 19 0a 19 bf 60 83 a5 3f b3 86 4a bd
       -1.0747007 -0.5978103 1.2930717 -0.049444865
000330 a9 e3 d9 3f c8 81 9c 3d e1 d6 1a 3e b5 5d 6b bf
       1.7022601 0.07641941 0.15121032 -0.9193986
000340 79 35 89 3e 53 74 a0 bf b3 0c 04 c0 a3 9c 1a 3f
       0.2679861 -1.2535499 -2.063275 0.6039526
000350 8c 48 30 3e af c5 21 bf a3 0b 9f bd cf d3 0a 3f
       0.17215174 -0.63192266 -0.077658914 0.54229444
000360 c0 61 ad bd 62 fb de be 7c 7f 74 be 24 9a 85 bf
       -0.0846591 -0.43551165 -0.23876756 -1.0437665
000370 ec d5 9f 3f 51 35 0c 3f d1 33 9b 3f 80 3e f7 3e
       1.2487159 0.54768854 1.2125188 0.4828987
000380 34 06 15 3f 17 37 23 bf 73 3d ea 3e 75 00 7a bf
       0.5821259 -0.63755935 0.45750007 -0.9765695
000390 84 f2 04 c0 8f a6 09 c0 3d 83 20 bf d3 fd 4f bf
       -2.077302 -2.150791 -0.62700254 -0.8124668
0003a0 91 55 8f bf 79 a6 1d be 96 53 f2 bf 10 5d 2c 3f
       -1.1197988 -0.15395536 -1.8931758 0.673295
0003b0 6d 76 93 bd 06 29 47 bf 63 ac 99 bf b9 48 fc bf
       -0.07200322 -0.7779697 -1.2005733 -1.9709693
0003c0 09 14 85 3f 2d ec b3 3e d3 08 5d 3f 29 62 e4 bf
       1.0396739 0.35141125 0.8634159 -1.7842456
0003d0 c4 3b f6 3f a3 58 15 3d d1 f2 ff 3f a6 b3 85 3e
       1.9236989 0.036461484 1.9995977 0.26113623
0003e0 56 23 95 3f 99 7e df 3d 90 e5 fa 3e d3 ac b1 bf
       1.1651409 0.109128185 0.49003267 -1.3880867
0003f0 e2 5f c9 3d 27 9e 2e bf b8 eb b5 bf d4 15 b4 3d
       0.09832741 -0.6821007 -1.4212561 0.08793226

conv1.bias f4 [16]
000000 33 64 64 bd ed 08 50 3d 12 e4 8e 3d ae b4 b7 bb
       -0.05575962 0.050789762 0.06977095 -0.0056062555
000010 dd 72 d4 bd 23 0c ab 3c a5 21 8d bd 37 e6 9d 3d
       -0.10373471 0.02087981 -0.06891183 0.077099256
000020 ff 8f e0 bc f1 f1 f1 3b 87 5c 81 bd 9b 47 b0 bd
       -0.027412413 0.007383578 -0.06316476 -0.08607408
000030 9b 58 83 bc 0a 53 23 bd fc 66 81 bd e1 5f 6d ba
       -0.016033461 -0.039874114 -0.06318471 -0.00090551196

conv1.lin.weight f4 [16, 3]
000000 ff 48 ce bd f0 d6 21 3f 3c 70 3d 3b 00 1b 27 3f
       -0.10072517 0.63218594 0.0028906008 0.65275574
000010 a7 ac 80 3d e6 29 36 be 71 ac 07 3f 2d ea d0 3d
       0.06282931 -0.1778942 0.529975 0.102009155
000020 40 dd 90 3e 45 33 b4 be 5c f3 3b 3e 16 16 b7 3e
       0.282938 -0.35195366 0.18354553 0.35759038
000030 4a 0d c7 3e 35 78 db 3e cf 04 3c bd 7a b7 c3 be
       0.38877326 0.42865148 -0.045903023 -0.3822592
000040 d7 98 19 be 88 8c 24 3e a5 be 01 3f 95 c0 a7 bd
       -0.1499971 0.16069233 0.50681525 -0.08191029
000050 9f a2 98 bc b0 b5 bd bc 3b b6 c2 3e 72 17 a9 3e
       -0.018632231 -0.023157924 0.38029656 0.330257
000060 96 f7 c8 bd 0f 01 e8 3e 09 71 aa 3e a8 11 e2 be
       -0.09812848 0.45313308 0.33289364 -0.44154096
000070 5a 20 b7 be 5e 94 77 be 7d 17 67 3e c1 8f de be
       -0.3576687 -0.24177691 0.22567554 -0.4346905
000080 14 1c b3 3d 1b 33 f6 be e1 4a 9a bd dc 69 8e be
       0.0874559 -0.48085865 -0.07533813 -0.2781514
000090 9d 57 38 bc 25 3f 6a bd b0 59 06 bf 6d 79 26 be
       -0.011251357 -0.057189126 -0.524806 -0.16257258
0000a0 98 c3 bf 3e e1 c9 4b 3f 8b 4c 8b 3e c4 f6 1b 3c
       0.37453914 0.7960492 0.27206835 0.009519283
0000b0 c2 cc 82 3d 15 97 7e 3b 90 55 0c 3f 55 91 b1 3e
       0.06386711 0.0038847376 0.5481806 0.34681192

conv2.lin.weight f4 [1, 16]
000000 11 13 81 be c2 40 a5 3e c0 6e 2a be 08 dd 94 bd
       -0.2520986 0.3227597 -0.1664381 -0.07268721
000010 d6 a7 a7 3e 83 f6 aa bd 44 8b 63 3e 62 c2 83 3e
       0.32745236 -0.083478 0.22221094 0.2573424
000020 0d f0 58 3e 06 54 b5 bc 34 f1 34 3e 97 75 6c be
       0.21185322 -0.022134792 0.17670137 -0.23091732
000030 94 6e 40 3d 5a 1d 32 3d a8 cc 1a 3f 40 9f 9c be
       0.046980456 0.043485023 0.6046853 -0.30590248

bn1.weight f4 [16]
000000 e7 87 34 3f a4 97 87 3f f5 96 44 3f c3 c2 35 3f
       0.7051987 1.0593152 0.7679284 0.7100031
000010 dd 3e 7d 3f 48 09 4d 3f 42 00 98 3f cb 4d 2a 3f
       0.98924047 0.8009229 1.1875079 0.6652495
000020 a8 0e 22 3f 82 12 5b 3f 2b 41 1f 3f 60 a3 24 3f
       0.63303614 0.85575116 0.62208813 0.6431179
000030 3f a0 5b 3f 12 92 4f 3f 5d 0a 8e 3f 11 df 38 3f
       0.8579139 0.8108226 1.1096913 0.7221537

bn1.bias f4 [16]
000000 c3 ec 8a be 55 65 7f 3e 0e b9 64 be 6a f2 7a be
       -0.2713376 0.24940999 -0.22336218 -0.24506536
000010 4b e4 02 3e 66 15 ad be 7a a0 00 3f 36 90 31 be
       0.127824 -0.33805388 0.5024487 -0.17340168
000020 03 a3 15 be 93 92 0e be 19 61 91 bd ad 7f 94 be
       -0.14612965 -0.13923101 -0.07098598 -0.2900366
000030 75 42 16 3e a3 19 4b 3e 4a 6b 41 3e 2d 5a 53 be
       0.14673789 0.19833998 0.18888584 -0.20639868

bn1.running_mean f4 [16]
000000 28 4a 81 3e 4d 8c ca 3e 22 bc 1d 3f b8 11 db 3d
       0.2525189 0.39560166 0.6161519 0.10696739
000010 f3 50 bb 3e ba 70 4c be 62 f3 23 3e ee a6 f8 3e
       0.36585197 -0.19964877 0.16010812 0.48564857
000020 58 dc c2 3e 44 72 21 bf 23 5e 19 be 08 8e 19 bf
       0.38058734 -0.6306498 -0.14977317 -0.5998235
000030 eb 98 c1 be c9 74 11 3f d0 8c 18 3e 4c ea 06 3f
       -0.3781198 0.56818825 0.14897466 0.5270126

bn1.running_var f4 [16]
000000 02 da e6 3d c9 4e 18 3e 17 b7 6e 3e 97 6b 5c 3d
       0.112720504 0.14873804 0.2331203 0.053813543
000010 93 4e 34 3e 47 61 78 3d 1c 18 a1 3d e7 48 04 3e
       0.17608099 0.060639646 0.078659266 0.12918435
000020 ef 0c 0e 3e 40 dc 94 3e e4 a4 40 3d 3d eb 53 3e
       0.13872121 0.29074287 0.047032252 0.20695205
000030 4d 1f f7 3d 0a 18 a9 3e 74 ac 22 3d 77 36 5a 3e
       0.12066517 0.33026153 0.039715245 0.21309839
