data/gnn_model_red.pth (torch, 422156 bytes, 8 tensors)

node_embeddings.weight f4 [34807, 3]
00000000: e7d6 04be 3fdb bd3e 2870 333f c2a0 113e
00000010: df33 0fc0 c64b a13e b654 8d3f d84d 003e
00000020: 68be 17bd f127 92bf c1b7 f1be b07e adbf
00000030: 11f1 f43d 695b 2fbf 4c51 c03f 3b43 9ebf
00000040: 3f8d e2be 83b3 a8bf 0b6b 10bf c9ce 6c3e
00000050: 9cad 0cbd b709 c33e 26ce f1be bf39 ad3f
00000060: 4288 093f a5e7 c6be 843a 393d 1add fbbf
00000070: e4f3 bebf cdc7 fdbe 6c85 05bd 0906 4c3e
00000080: f55c 863f caec 85bf 3a1a 97bf 272d bcbd
00000090: 0afe 053f f2ee 8e3f 7fd4 94bf 5ca4 b03e
000000a0: c6b1 73bf 4bfd febe 950f 603f 0bff fa3d
000000b0: a2f8 0f3f dc3a c03e 9ea3 ce3e 94db ba3f
000000c0: 8202 f4be 5119 dcbd cec5 873f b1a0 3e3e
000000d0: 02ba 943d 2137 1abf 1077 71bf 6873 6bbe
000000e0: 55f6 893f ac64 65bf 004b 58bf 09e1 1ebf
000000f0: a6c0 00be 2a7e 2bc0 1efd a03e 3a97 de3e
00000100: c83f 0ebf 5ee5 d13f 6e75 793f d340 933e
00000110: 79a1 3fbf e19b bfbf 1279 61bf d4dc b7bc
00000120: 0869 98bf 6036 acbf c9cd 0cbf f708 d3bd
00000130: 2493 fa3f e298 bb3f 2941 cc3f 8063 8bbf
00000140: 1aad ec3e 50f4 b3be 3d0b 083e 4275 963e
00000150: add4 b43e bf37 ecbe ef0d 1940 4389 e4bf
00000160: d4c2 7ebe ff18 6c3e 7de3 4bbe 91a0 1d3f
00000170: a3ce 3abf aa18 06bf 33c0 8ebe 5b15 d3be
00000180: c6a9 8ebf f326 52be 0f5a 283f 99ad 0e3f
00000190: f0ee 0fbf 57ed 05c0 4732 a6bf 224c 7c3e
000001a0: 8204 d23f 14bf 023e 25fa 1640 a2e4 87be
000001b0: f2db 6abe 3c81 aa3f 574f ca3e 9592 0e3e
000001c0: 7e55 b33f 5a1c 64bf 0599 823f 64d0 653f
000001d0: 6954 13bf a307 bdbe 581a d23f 57ad 8fbb
000001e0: 603c b63e a86b 1d3f daea ef3f d146 dd3f
000001f0: e059 f13e 0a76 f73f 15d8 96bf 81a4 003f
00000200: 3278 07c0 7c51 143e 64f2 4fbe 9283 103f
00000210: b83c 02be 9164 423e c7f5 d2bb 634f 07be
00000220: 7fac 713f 1025 a2be ae8f 9a3f 4ea1 c0bf
00000230: b9e1 d0bd 2797 a53f 63a7 cebe 4908 003d
00000240: 65c1 76bf 73e7 a13f da92 853e ebb7 533e
00000250: e935 883f ed65 0f3f 7d90 edbf b862 01c0
00000260: 697f 04c0 704e fbbe bc44 0ebf fbe3 593f
00000270: 8cff 0c3f 6c33 5a3f 5027 e63e d299 523e
00000280: f464 fabf 3c2a 90bf 8768 183e b7cf 3cbf
00000290: 4440 b1bf 5117 7a3f 1bef 69bf 73d4 fa3e
000002a0: 2f5a 9f3e 4d57 1e3f 7165 07c0 e716 2340
000002b0: c937 813f e0a5 bdbe 6f66 043f 8763 6d3f
000002c0: 9915 393e eedf 103e 860f 6b3f 09a5 7f3f
000002d0: a64d aa3e 1076 983d 395a 1dbf 1739 7a3f
000002e0: ba0b 80be d772 19bf de52 febe 4051 8b3f
000002f0: adbb c83e 73a2 873f 7ebb d4bf dbf7 243f
00000300: f0cc a93f 4063 833f 92b6 4abe 84d3 0b40
00000310: 480d 1bbf aad2 8cbf 46c8 3dbf 10c9 9a3d
00000320: 5710 60be 7e40 9cbc 10c2 01be 2a78 9c3d
00000330: 1e38 cbbe 445e 2b3f 79bb e83e 3bae 1c3f
00000340: dead 63bb 07b5 cfbe 35bc 66bf c2eb 893f
00000350: 6780 2d3f fd3b b2bf e36c eabe 3a7a 023f
00000360: 5c9a bcbe bd9b 1fbf e881 a93e d1e5 cb3e
00000370: 07a0 e8be 2915 073f 4f74 9dbe c4b4 cd3e
00000380: fd09 b53f 01f5 1740 66b6 a2be 9ec0 543f
00000390: 6c4c 183f aae6 2640 2ea5 d2bf a8be e23f
000003a0: 6c40 04bf b50f afbf 3994 453f 3409 2bbf
000003b0: ee13 a7bf 7b6a 343e f3d5 9f3d e653 95bd
000003c0: 1390 8d3f cea1 54be 1906 abbf 61d2 98be
000003d0: 63bf 16bf 6646 5a3e 4e70 86bf b5ef d03f
000003e0: fc47 7abe 4027 6d3f 58af e6bf 0ea5 b53f
000003f0: fdad d23e 8f38 183f 89a2 e53e 791d 5d3f
-0.12972604 0.37081334 0.7009301 0.1422148 -2.237541 0.31503123 1.1041477 0.12529695
-0.03704682 -1.1418439 -0.47210506 -1.3554287 0.11960042 -0.68498856 1.502481 -1.2364267
-0.44248387 -1.3179783 -0.56413335 0.23125757 -0.034345254 0.3809335 -0.4722759 1.3533248
0.5372354 -0.38848606 0.04522182 -1.967685 -1.491818 -0.49566498 -0.032597944 0.19924177
1.0497118 -1.0462887 -1.1804879 -0.091882996 0.5234076 1.116667 -1.1627349 0.34500396
-0.95193136 -0.49802622 0.87523776 0.12255677 0.5623876 0.37544906 0.40359205 1.459826
-0.47658163 -0.10747016 1.060724 0.18615986 0.07262041 -0.6024037 -0.943223 -0.22993243
1.07783 -0.8960674 -0.8448944 -0.62062126 -0.1257349 -2.6795754 0.31443113 0.43474752
-0.5556607 1.6398122 0.9744481 0.28760394 -0.7485576 -1.4969445 -0.88075364 -0.022444166
-1.1907053 -1.3454094 -0.55001503 -0.10304444 1.9576154 1.4656031 1.5957385 -1.088974
0.46225816 -0.35147333 0.13285537 0.29386336 0.3531851 -0.4613628 2.3914754 -1.7854389
-0.24879009 0.2305641 -0.19910999 0.6157313 -0.7297155 -0.52381384 -0.2788101 -0.4122723
-1.1145561 -0.2052267 0.6576242 0.5573364 -0.56223965 -2.092611 -1.2984093 0.24638417
1.6407626 0.12768203 2.3590176 -0.2654162 -0.22935465 1.3320689 0.39513656 0.13923104
1.4010465 -0.8910576 1.0202948 0.89771104 -0.57550675 -0.3691989 1.641429 -0.0043846774
0.35592937 0.61492395 1.8743546 1.7287236 0.47138882 1.9332898 -1.1784693 0.50251013
-2.1167111 0.14484209 -0.20307308 0.5645076 -0.12718475 0.18983676 -0.0064379903 -0.13213877
0.94403833 -0.316689 1.2075098 -1.5049226 -0.10199303 1.2936753 -0.4036208 0.0312579
-0.96388847 1.2648758 0.260886 0.20675628 1.0641452 0.560149 -1.8559719 -2.0216503
-2.0702765 -0.4908328 -0.5557363 0.85113496 0.55077434 0.85234714 0.44951868 0.2056649
-1.9562058 -1.1262889 0.14883624 -0.7375445 -1.3847737 0.9769183 -0.9138047 0.4899021
0.31123492 0.6185196 -2.1155665 2.5482728 1.0095149 -0.37040615 0.517188 0.9272999
0.18074645 0.14147922 0.9182056 0.998612 0.33262366 0.07444394 -0.61465794 0.9774336
-0.25008947 -0.59940857 -0.49672598 1.088417 0.39205685 1.059645 -1.6619718 0.644407
1.3265667 1.0264664 -0.19796208 2.184785 -0.6056714 -1.100179 -0.7413372 0.07557881
-0.21881233 -0.019073721 -0.12671685 0.07640107 -0.39691252 0.6694071 0.4545553 0.61203355
-0.0034741084 -0.405678 -0.9013093 1.0775073 0.6777405 -1.3924557 -0.457862 0.5096775
-0.36836517 -0.6234701 0.33106923 0.39823774 -0.4543459 0.5276666 -0.307528 0.40176976
1.4143673 2.3743289 -0.31779784 0.8310641 0.5949161 2.6078286 -1.6456659 1.7714434
-0.516608 -1.3676668 0.77179295 -0.6681092 -1.3052957 0.17618744 0.078044794 -0.07291393
1.1059593 -0.20764849 -1.3361236 -0.29848006 -0.5888578 0.21315917 -1.0503023 1.6323153
-0.24441522 0.92638016 -1.8022261 1.4190996 0.41148368 0.594613 0.44850567 0.86373097

conv1.bias f4 [16]
00000000: 9434 aebc 1ad4 24bd caf0 69bd f2f9 873c
00000010: fcef 81bd bf64 6fbc 0be6 c33c 83ea 513d
00000020: 3bbc fa3c 7448 6c3c 29e2 f5bc f443 b13c
00000030: d73e b53c e255 14be 5f4c 08bd 3ed6 08bd
-0.021265306 -0.04024134 -0.0571144 0.016598675 -0.063446015 -0.014611422 0.023913404 0.05124904
0.030607333 0.014421571 -0.030015068 0.021638848 0.022124691 -0.14485887 -0.03327596 -0.033407442

conv1.lin.weight f4 [16, 3]
00000000: ca53 c0bd 0ee0 11bf 0b70 7bbe 3b75 bb3e
00000010: 89d8 9d3e 42d5 153d 6554 5cbe e2a4 30be
00000020: f0da babd 4928 473f b27e dfbd 74e7 1cbd
00000030: 28f1 913e b641 043d 8338 833d 2a63 11be
00000040: db34 67be a92e 3fbf e8a0 f3bd e72f f03e
00000050: b7d5 6e3e dcfb 91be fde2 edbd d957 883c
00000060: 4a22 dc3d a393 1fbf 4b1d 243f 62f7 b83d
00000070: 0282 e43e e57e de3e a6ef d43e 6f83 54be
00000080: c3e5 03be 4538 ff3e b85d ab3d afce 4cbe
00000090: 119f db3c 4569 24be 1165 21bf 5ce8 473e
000000a0: eff0 2bbe 9110 a4be 23ed c4be 86cb 333e
000000b0: ef51 1a3e eccd febe 7184 733e 1b25 933e
-0.093909815 -0.56982505 -0.2455446 0.36612877 0.30829266 0.03658033 -0.21516569 -0.17250398
-0.0912379 0.77795845 -0.10912837 -0.03830667 0.285043 0.03228923 0.06407263 -0.14197984
-0.22578757 -0.7468057 -0.11895925 0.46911547 0.23323713 -0.28512466 -0.1161556 0.016643452
0.107487276 -0.6233465 0.641072 0.090315595 0.44630438 0.43456188 0.41589087 -0.20753263
-0.12880616 0.49847618 0.08367485 -0.20000719 0.026809247 -0.16055782 -0.6304484 0.19522232
-0.16791128 -0.3204389 -0.3846217 0.17558107 0.15070318 -0.4976648 0.23780991 0.28739247

conv2.lin.weight f4 [1, 16]
00000000: 0a94 aebd 8b92 133e f440 aebc fa0d 8b3e
00000010: 719d 4b3e 88ee 14bc fa9d 443c 6b2c 80bd
00000020: 0d92 b93d a9c5 643d 82dc 2d3e 8569 d13d
00000030: d8a3 183c 0987 9d3d 2453 48bd e9a9 1abe
-0.0852433 0.1441137 -0.021271206 0.271591 0.19884278 -0.009090073 0.012000555 -0.06258472
0.0906106 0.055852566 0.16978648 0.102252044 0.009316407 0.076917715 -0.048907414 -0.15103878

bn1.weight f4 [16]
00000000: 6ad4 3f3f be6b 503f afdc 5c3f b073 863f
00000010: 9c63 603f 763d 323f e6f0 5b3f 8ea7 4e3f
00000020: 9dce 4d3f 84fe 5f3f f56a 6f3f 3024 673f
00000030: 5d8b 3b3f 0544 493f 56c2 2e3f bb88 203f
0.74933493 0.814144 0.86274236 1.0504055 0.8765199 0.6962503 0.85914457 0.8072442
0.8039339 0.87497735 0.9352258 0.9028959 0.73259526 0.78619415 0.68265283 0.62708634

bn1.bias f4 [16]
00000000: 6590 73be 6d33 6f3d 58bc 0fbe 32f3 7f3d
00000010: 8bac 0c3e 2345 93bd 9523 c0bd 1423 4ebe
00000020: 15bf ddbc c910 333d a213 023e 8411 b4bd
00000030: a2c5 b53d 50b9 a73d 848f 03be 1392 9bbe
-0.23785551 0.058398653 -0.14036691 0.06248779 0.13737695 -0.07190921 -0.09381787 -0.20130569
-0.027068654 0.04371718 0.12702802 -0.08792403 0.08875586 0.081896424 -0.12847716 -0.30384883

bn1.running_mean f4 [16]
00000000: 9175 f8be cb45 a93e 4697 9cbe 646c a83e
00000010: 7d78 0e3e 0d49 15bf f465 9e3e a856 15be
00000020: fc7d be3d e78e 013f c39d 713b 9ea3 573e
00000030: b96b bdbe c790 9dbe 196b 5fbd 5f82 06bc
-0.48527196 0.3306106 -0.30584162 0.32895195 0.1391315 -0.5831459 0.3093716 -0.14583838
0.09301373 0.50608677 0.0036867715 0.21058509 -0.36996248 -0.3077452 -0.054545496 -0.008209794

bn1.running_var f4 [16]
00000000: dae2 0d3d 38dd ae3c 3c21 ff3b 58c5 503d
00000010: a665 f43b f309 5c3d 85e6 c43c 216e 073c
00000020: ad2d 863d 2ae0 0d3d 6655 9b3c c75b c23c
00000030: 1e01 123d 75b4 713c a319 823c 0be9 003d
0.03464017 0.02134572 0.0077859443 0.05096945 0.0074584065 0.053720426 0.024035702 0.008266003
0.06551681 0.034637608 0.01896162 0.023725403 0.035645597 0.014752497 0.015881365 0.031472247
