data/gnn_model_green.pth (torch, 422184 bytes, 8 tensors)

node_embeddings.weight f4 [34807, 3]
0	0xbe36e448	-0.1786052
1	0x4002d061	2.0439684
2	0x3ea4de77	0.32200977
3	0x3e8b5ef2	0.27220875
4	0x3fa1f5da	1.2653153
5	0x3f488037	0.7832064
6	0x3e8c2395	0.27370897
7	0x3f592898	0.84827566
8	0x3f8db0c4	1.106957
9	0x3eb0b194	0.3451048
10	0x4011d646	2.2787032
11	0xbf76a8ed	-0.9635151
12	0xbeea5ad8	-0.45772433
13	0x3fd5fccc	1.6717772
14	0xbec5dbf1	-0.38644364
15	0xbf4903b8	-0.785213
16	0x40082425	2.127206
17	0x3f68fdf0	0.9101248
18	0x3f46bb32	0.7762939
19	0xbe90fe39	-0.28318956
20	0x3ed80658	0.4219234
21	0x3f20e76d	0.6285313
22	0xbf2d7bd0	-0.6776705
23	0xbf4566b5	-0.77109843
24	0x3f076118	0.5288253
25	0xbe61867d	-0.2202396
26	0x3fe3ab31	1.7786618
27	0x3f848bc0	1.0355148
28	0x3ea3f5ac	0.3202337
29	0xbf90fc87	-1.1327065
30	0x3f76223b	0.9614598
31	0xbebd034d	-0.3691658
32	0x3f36fd20	0.7147999
33	0x3f2bb8f2	0.6707908
34	0xbed3a8b7	-0.41339657
35	0xbdd83d66	-0.10558586
36	0x3f1d44d0	0.61433125
37	0xbfad3646	-1.3532188
38	0x3c3ab60c	0.011395942
39	0xbf9146d4	-1.134974
40	0x3f597613	0.8494579
41	0x3fb78780	1.4338226
42	0x3e3c99f6	0.18418106
43	0xbf29eba7	-0.663752
44	0x3eb85a5a	0.36006433
45	0xbe2b929e	-0.16755149
46	0xbfcbd368	-1.5923891
47	0xbd4bc364	-0.049746886
48	0xc0139cb6	-2.3064399
49	0xbf06f72e	-0.52720916
50	0x3f65c5a4	0.897547
51	0xbf5e582a	-0.8685328
52	0x3f1bae79	0.608131
53	0x3e8c5c4b	0.27414164
54	0xc00eadcb	-2.2293575
55	0x3f4c6ffe	0.79858387
56	0x3d973fcc	0.07385215
57	0xc00a5d91	-2.1619608
58	0xbf852eaf	-1.0404872
59	0x3ea9a8d0	0.33136606
60	0x3c930822	0.017948214
61	0xbda5f197	-0.0810272
62	0xbf076287	-0.52884716
63	0xbf41c726	-0.756945
64	0xbe7db275	-0.24775107
65	0x3ec7ffa8	0.39062238
66	0xbea0e718	-0.3142631
67	0xbeab345b	-0.33438382
68	0x3f3fbdb3	0.74898833
69	0xbfc37dda	-1.5272782
70	0x3f35f3cb	0.71075124
71	0x401f04d1	2.484669
72	0x3ddffbca	0.10936697
73	0x3d7e0459	0.062015865
74	0x3f1f213e	0.621601
75	0xbd8cd963	-0.06877401
76	0xbf30a223	-0.689974
77	0x4002177e	2.0326838
78	0xbf0903ad	-0.53521234
79	0xbf914a31	-1.1350766
80	0x3f864de6	1.0492523
81	0xbdc0bd67	-0.09411126
82	0x3fe92dfa	1.8217156
83	0x3e63f1e7	0.22260247
84	0x3e596189	0.21228613
85	0xbf81be77	-1.013625
86	0xbe15ef4d	-0.14642067
87	0x3f4d20ca	0.8012816
88	0x3f496e4e	0.78683937
89	0xc0297c9f	-2.6482313
90	0x3dfd3fb7	0.12365668
91	0xbf6f1b7c	-0.9340131
92	0xbcf38f23	-0.029731339
93	0x3da91ea8	0.082578
94	0x3ed0d13f	0.40784642
95	0x3f5682d3	0.8379337
96	0xbef40b08	-0.47664666
97	0x3ed181d2	0.40919358
98	0x3fd97ec4	1.6991811
99	0xbe5f397a	-0.2179927
100	0x40041514	2.0637865
101	0x3ee7037c	0.45119846
102	0x3cb30582	0.021853212
103	0xbe28a3b4	-0.16468698
104	0xbfa69dd0	-1.301691
105	0x3e3ca1ba	0.18421069
106	0x3eaae04a	0.33374244
107	0xbf3c914a	-0.73659194
108	0xbf9157be	-1.1354902
109	0xbeb5cafa	-0.3550642
110	0x3de8111d	0.11331389
111	0x3f559ef6	0.8344568
112	0xbf38e8b7	-0.72230095
113	0xbf96aa32	-1.177069
114	0x3f9940fe	1.1972959
115	0xbe4f2d1f	-0.20232056
116	0xbff3e82a	-1.9055226
117	0x3f646ea3	0.8923132
118	0x3e87c14b	0.26514658
119	0xbf231cf9	-0.63716084
120	0x3e88a261	0.26686385
121	0x3e943d8e	0.28953212
122	0xbfa24729	-1.2677966
123	0x3e4fc3c1	0.20289518
124	0x3fef7d47	1.8710107
125	0x3f893f29	1.07224
126	0xbfa32c9d	-1.274799
127	0x3f9ae7a9	1.2101947
128	0x3edbb2ac	0.42909753
129	0xbf1b477e	-0.60655963
130	0x3fa06b8d	1.2532822
131	0xbf6b96f9	-0.9202724
132	0x3fdb0570	1.7111034
133	0x3f9fed1c	1.2494235
134	0xbfbebb11	-1.4900838
135	0xbf1043f5	-0.56353694
136	0x3f589c26	0.84613264
137	0x3e8c83a0	0.27444172
138	0xbf2af1b6	-0.6677507
139	0xbf724d4a	-0.94649184
140	0xbff934fb	-1.9469293
141	0xb993014d	-0.00028038994
142	0xbf8d1ec2	-1.1025012
143	0xbe55419b	-0.20825808
144	0x3df094f7	0.11747163
145	0x3fc9b6a3	1.5758861
146	0xbe2ddae2	-0.16978028
147	0xbeaea0e7	-0.34107134
148	0x3eecc865	0.4624664
149	0x3f809192	1.0044425
150	0x3f5fd58b	0.87435216
151	0x3ea8eb68	0.329921
152	0x3fa58ee8	1.2934237
153	0x3f05f553	0.5232746
154	0xbf673c4e	-0.9032639
155	0xbf8d1fb8	-1.1025305
156	0x3ea6f48d	0.32608452
157	0xbf72d79f	-0.9486026
158	0x3e1b39fa	0.15158835
159	0xbe708b66	-0.23490676
160	0x3e66de38	0.22545707
161	0x3ffc2cd5	1.9701182
162	0xbef595c7	-0.47965834
163	0xbf2a23d1	-0.664609
164	0xbf9e5fe9	-1.237302
165	0x3faa1f81	1.3290864
166	0x3f907ddc	1.1288409
167	0x3fc7eadb	1.5618547
168	0x3c65b655	0.014020522
169	0x40468e79	3.1024458
170	0xbeed1a6a	-0.46309215
171	0x3e37711a	0.17914239
172	0xbf20cd91	-0.6281367
173	0xbdf92e96	-0.12167089
174	0x3e31bb21	0.1735654
175	0xc01dd376	-2.4660316
176	0xbfb7f1c9	-1.4370662
177	0xbf261ba4	-0.64885926
178	0xbfb17bc4	-1.3865895
179	0xbf1789ee	-0.5919484
180	0xbeddb101	-0.43299106
181	0xbe314a1a	-0.17313424
182	0x3fe2c8f9	1.7717582
183	0xbf419395	-0.7561582
184	0x3ff0600d	1.8779312
185	0x3f92c38f	1.146593
186	0xbf05da3a	-0.5228611
187	0xc00bcecc	-2.1844969
188	0xbfccc9dd	-1.5999104
189	0xbfdbac81	-1.7162019
190	0x3e9d7ea8	0.30760694
191	0xbfb295af	-1.395193
192	0x3f9bb206	1.2163703
193	0xbe91962c	-0.28434885
194	0xbefa1744	-0.48845875
195	0x3d324a61	0.043527965
196	0x3f26ab97	0.65105575
197	0xbf834d96	-1.0258052
198	0xbf0b53a7	-0.5442452
199	0x3f6e214d	0.9301956
200	0x3fcf063f	1.6173781
201	0x3de213ca	0.11038931
202	0x3fc89410	1.5670185
203	0xbf4f38b7	-0.80945915
204	0xbfa840f5	-1.3144823
205	0xbfcbf799	-1.5934936
206	0x3f58cc03	0.846863
207	0x3f807bfa	1.0037835
208	0x3f4d2d14	0.8014691
209	0xbee8790b	-0.45404848
210	0xbf3d68fa	-0.73988307
211	0xbf25e584	-0.6480334
212	0xbfb81ff5	-1.4384753
213	0xbe5c7c63	-0.21531825
214	0xbfcf1b6c	-1.6180243
215	0x3f8da590	1.1066151
216	0x3e0c6769	0.13711323
217	0xbe9cffc9	-0.306639
218	0xbf9183a1	-1.1368295
219	0xbf8bd75c	-1.0925097
220	0xbe6b26dc	-0.22964042
221	0x3ef91bbc	0.48653972
222	0xbf6889fd	-0.90835553
223	0xbe4b57ad	-0.19857664
224	0x3ed777d1	0.420836
225	0x3fb8e0bd	1.4443585
226	0x3f9eb324	1.2398419
227	0x3f80a60c	1.0050673
228	0x3e0f59fc	0.1399917
229	0x3f96e508	1.1788645
230	0xbceed42a	-0.029153902
231	0x3f0907f8	0.53527784
232	0xbf2dec68	-0.6793885
233	0x3fd2d91d	1.6472508
234	0xbfe5aeac	-1.7943931
235	0xbec38be8	-0.38192677
236	0xbe529a61	-0.20566703
237	0xbf25ba5d	-0.6473749
238	0xbe1e9032	-0.15484694
239	0x3f2f5c5b	0.685003
240	0x3e726558	0.23671472
241	0xbdbbc34c	-0.09168109
242	0xbef63b21	-0.48091987
243	0xbf5bcbb4	-0.858577
244	0xbf0dd5c3	-0.554043
245	0x3f3b2cd3	0.7311527
246	0xbf8abd18	-1.0838957
247	0xbe217997	-0.15769039
248	0x3eda4e03	0.42637643
249	0x3e52c6f8	0.20583713
250	0xbf9070b9	-1.12844
251	0x3ebf718c	0.37391317
252	0xbf3342b5	-0.7002366
253	0x3fc148da	1.5100358
254	0xbfa0e7b9	-1.2570716
255	0x3e979838	0.2960832

conv1.bias f4 [16]
0	0x3d884f27	0.06655722
1	0x3c558114	0.013031263
2	0xbd25f0ab	-0.040512722
3	0x3d4608aa	0.048348106
4	0xbd398164	-0.045289412
5	0x3d2d901b	0.042373758
6	0xbd976eac	-0.07394156
7	0xbd10261a	-0.035192586
8	0xbd9c7da7	-0.07641154
9	0x3c44f3ac	0.0120209865
10	0xbd4668b1	-0.048439685
11	0xbd60cd95	-0.05488356
12	0x3c0fc134	0.008774091
13	0xbcdb4588	-0.026766554
14	0xbd5dd994	-0.054162577
15	0x3c8184ab	0.015810331

conv1.lin.weight f4 [16, 3]
0	0x3f10bd53	0.56538886
1	0x3da8fa75	0.08250896
2	0x3e653c6d	0.22386332
3	0xbdb9e4be	-0.09076832
4	0xbd36fc0e	-0.04467397
5	0xbf14ebf0	-0.5817251
6	0xbe1a00b3	-0.15039329
7	0x3f02f8a2	0.51160634
8	0xbd65ff78	-0.056151837
9	0x3d974201	0.07385636
10	0x3f185419	0.5950332
11	0xbdb5851e	-0.08863281
12	0x3e156adc	0.14591545
13	0x3d2fe680	0.04294443
14	0x3f27f9b8	0.65615416
15	0xbf1d6855	-0.61487323
16	0xbcdca0e7	-0.026932193
17	0xbe2d6447	-0.16932784
18	0xbdf983b7	-0.12183326
19	0x3eec96a8	0.46208692
20	0x3ed85ff4	0.42260706
21	0x3e3a0514	0.18166
22	0xbe53df96	-0.2069076
23	0xbf123167	-0.5710663
24	0x3f0021f3	0.500518
25	0xbe6b43ac	-0.22975034
26	0x3e7c87c9	0.24661173
27	0xbdf41bca	-0.11919363
28	0xbe9098d0	-0.28241587
29	0xbe336695	-0.175196
30	0x3e9b9364	0.30385888
31	0xbd1a04c7	-0.037602212
32	0x3d9845b4	0.0743517
33	0x3f12a636	0.5728487
34	0x3da86394	0.08222118
35	0x3ce8c1f4	0.028412797
36	0x3f078068	0.5293031
37	0xbd537751	-0.05162746
38	0x3e895922	0.26825815
39	0x3e8dfbf3	0.27731284
40	0x3eb442cc	0.35207212
41	0xbd8c42cd	-0.06848679
42	0x3f1a740c	0.60333323
43	0x3ddd801b	0.1081545
44	0xbd808de3	-0.06277063
45	0x3f3732ce	0.71561897
46	0xbdf70840	-0.120621204
47	0xbe0b69ac	-0.1361453

conv2.lin.weight f4 [1, 16]
0	0xbec79156	-0.3897807
1	0x3d7f16cd	0.062277604
2	0xbd92110b	-0.07132157
3	0xbe316661	-0.1732421
4	0xbd4c376a	-0.049857534
5	0xbe907077	-0.28210804
6	0x3dfd5c1d	0.12371085
7	0x3d911f48	0.070860445
8	0x3edc2193	0.42994365
9	0x3ca732f4	0.020410039
10	0x3e58e7cf	0.21182178
11	0x3f09861a	0.5372025
12	0xbe0ac2de	-0.13550898
13	0x3e8968af	0.2683768
14	0x3ef8035c	0.48440063
15	0x3ebe907c	0.37219608

bn1.weight f4 [16]
0	0x3f547a0f	0.82998747
1	0x3f4ab9ec	0.79189944
2	0x3f4d251b	0.80134743
3	0x3f4b4136	0.7939638
4	0x3f564e2f	0.8371305
5	0x3f38c11a	0.7216965
6	0x3f5a0203	0.8515932
7	0x3f60bd37	0.8778872
8	0x3f85c485	1.0450598
9	0x3f6071b8	0.8767352
10	0x3f7d6733	0.98985595
11	0x3f8935ae	1.0719507
12	0x3f5799c1	0.84218985
13	0x3f899c0c	1.0750747
14	0x3f882ef2	1.0639327
15	0x3f889fb7	1.0673741

bn1.bias f4 [16]
0	0xbe2e7ab6	-0.17038998
1	0x3d38f792	0.045157976
2	0xbe3d4995	-0.184851
3	0xbe4a0598	-0.19728696
4	0xbe23bf12	-0.15990856
5	0xbe879699	-0.26482084
6	0x3d32598c	0.04354243
7	0x3de19a4b	0.11015757
8	0x3e05263f	0.13002871
9	0xbdf786a6	-0.12086229
10	0x3f0399bd	0.5140646
11	0x3e677aa1	0.22605373
12	0xbe286726	-0.16445598
13	0x3e40e460	0.18837118
14	0x3e7483a0	0.23878336
15	0x3e3a0f61	0.18169929

bn1.running_mean f4 [16]
0	0x3f2404a7	0.640696
1	0xbeee9aec	-0.4660257
2	0x3e1cccbf	0.1531248
3	0x3ed897a5	0.42303196
4	0x3f028ad0	0.5099306
5	0xbefa995c	-0.4894513
6	0x3ed5f28f	0.4178662
7	0xbee2a6b0	-0.44267797
8	0x3e84df13	0.25951442
9	0xbebae777	-0.3650472
10	0x3e3d1399	0.18464507
11	0x3ec83b15	0.39107576
12	0x3effbff1	0.49951127
13	0x3eb35392	0.35024697
14	0x3ebd0c88	0.36923623
15	0x3ea215f7	0.31657383

bn1.running_var f4 [16]
0	0x3ecf91e9	0.40541008
1	0x3e9adabe	0.30245012
2	0x3dd56bd8	0.1042096
3	0x3e66c5fd	0.22536464
4	0x3ecdf880	0.40228653
5	0x3eba1f93	0.36352214
6	0x3ea6dabb	0.32588753
7	0x3e82afd0	0.2552476
8	0x3e43a70f	0.19106697
9	0x3e2a0bb9	0.16606034
10	0x3d9815a8	0.074260056
11	0x3e8a0205	0.26954666
12	0x3ea0c235	0.31398168
13	0x3e415d4c	0.18883246
14	0x3e863bbf	0.26217458
15	0x3e588e23	0.21147971
